models/news.onnx (onnx, 205430 bytes, 9 tensors)

layer1.weight f4 [32, 1536]
0.0069320938 -0.013765048 0.0066156765 -0.008486341 0.019828962 0.025732655 0.007321824 -0.0061256774
0.013496116 -0.0056257476 0.006186521 -0.019400034 0.015999306 -0.011163704 0.0016876089 -0.010590352
-0.023408202 -0.0034595313 -0.024238922 0.0114648035 -0.004818618 -0.006921765 -0.010749672 -0.014891649
-0.024315529 -0.00087597553 -0.019455792 -0.03451969 0.019681888 0.00072311907 -0.013961842 -0.019423174
-0.011873759 -0.015682265 0.01613806 0.021077171 -0.014371055 0.02078273 -0.024232866 0.016485596
0.011274364 0.02380276 0.0069832187 -0.0028240196 0.01326311 0.019869156 0.0023831124 0.013636721
0.0035241763 0.029608857 0.0053981263 0.0064767334 -0.02484046 0.0035048516 0.013586593 -0.00120585
0.030662237 0.016200237 0.011005321 -0.010264969 -0.0043510506 -0.010995 0.020458791 0.021111527
-0.0019229702 -0.015433376 0.03746265 -0.018550796 0.0017959194 0.008012287 0.019251786 0.020072844
0.008061628 0.015631765 0.021988243 0.009169793 0.023236074 0.007985599 0.006558746 -0.006111244
0.016393047 -0.02571147 0.018400395 -0.018938184 -0.0027271064 -0.007664935 0.024793383 0.007190107
0.020993724 -0.008233033 0.0075404984 0.015950313 0.018918697 -0.0074638 0.017912095 -0.0030205895
0.0024382393 -0.002878455 -0.01789952 0.012128546 -0.007039522 -4.4731303e-05 -0.017317567 -0.012152396
-0.019941298 -0.00054504524 0.020673146 -0.018308608 0.009865041 -0.024943747 -0.008363461 0.009401618
0.0107235415 0.010949968 -0.014691142 0.011489115 0.020238586 -0.008020311 0.010711098 -0.02877391
0.006608826 0.00665888 -0.0165468 -0.02329642 -0.024734879 0.032007508 0.013285859 0.0032132678
0.020541495 0.006280303 0.00082542293 -0.023888467 -0.0135417525 -0.015221434 0.010577936 -0.0024391727
0.015904972 0.0059780553 0.021770768 0.013158949 -0.012373027 -0.021199308 -0.022484232 -0.0045437533
-0.014742536 0.03318575 0.016097851 -0.002958811 0.024709558 -0.026576173 0.011217527 0.016076792
-0.014839868 -0.0053167855 -0.020580433 -0.018311322 -0.0003200984 -0.001774763 -0.00019304622 0.02161192
0.013913015 -0.013670913 0.037327845 -0.018544374 0.003945225 0.00961583 -0.0061260844 -0.013401149
0.017946493 0.019984378 -0.025869954 -0.007137425 -0.0053456873 -0.008642654 -0.0077789 0.015765116
0.012336039 0.0037802514 0.018314295 -0.003844211 -0.021428555 0.004355555 -0.022668304 -0.014180803
-0.009104197 0.006850603 -0.001515107 0.016084043 0.020472093 -0.0015490141 -0.0004194556 0.022439403
-0.0063511846 -0.005836549 0.0035283566 -0.018854082 0.028313119 -0.008163395 0.010034074 0.008614478
0.008296704 0.017729321 -0.015776955 0.011447355 0.016470127 0.016463092 -0.01126907 -0.0075702164
-0.002366955 -0.011095243 0.024119928 -0.017443301 -0.01061953 0.0013332075 0.012683428 0.01676716
0.003918827 0.023450932 -0.004961548 0.017334715 -0.019278 0.0077268113 0.0019845928 0.024351161
-0.005157852 -0.020133376 0.016899355 -0.011674356 -0.011137034 0.0057351775 0.013630019 0.0044323965
-0.023527034 0.0005804684 -0.014607568 -0.01703793 -0.010553577 0.017295169 0.0037600072 -0.0090765
0.0032225493 0.033094827 -0.0053399564 0.02580021 0.015528778 0.012803193 -0.021602474 -0.01611919
0.0089582065 -0.017480373 0.02168936 0.0021037823 0.019769091 -0.0073521165 -0.013945275 0.02477346
00000000: 9e26 e33b cc86 61bc 51c8 d83b 4b0a 0bbc
00000010: 5970 a23c 4acd d23c e9eb ef3b e8b9 c8bb
00000020: d01e 5d3c 3158 b8bb 4db8 ca3b d2ec 9ebc
00000030: fa10 833c f8e7 36bc c232 dd3a 2883 2dbc
00000040: 8fc2 bfbc 4eb9 62bb b490 c6bc dfd6 3b3c
00000050: 7fe5 9dbb f9cf e2bb 641f 30bc 1afc 73bc
00000060: 5c31 c7bc b9a1 65ba c161 9fbc 8564 0dbd
00000070: e93b a13c b38f 3d3a 36c0 64bc 591d 9fbc
00000080: 288a 42bc 1878 80bc f733 843c 08aa ac3c
00000090: 9374 6bbc 8b40 aa3c 0184 c6bc cd0c 873c
000000a0: 1cb8 383c 01fe c23c 7cd3 e43b 3013 39bb
000000b0: 844d 593c a4c4 a23c fe2d 1c3b 8e6c 5f3c
000000c0: def5 663b 468e f23c c4e2 b03b c73a d43b
000000d0: 387e cbbc a7b1 653b 4d9a 5e3c 9d0d 9eba
000000e0: 5f2f fb3c 5cb6 843c a94f 343c 672e 28bc
000000f0: 4293 8ebb 5f24 34bc 3299 a73c 15f2 ac3c
00000100: 2c0c fcba 45dc 7cbc 7072 193d d7f7 97bc
00000110: 0e65 eb3a f845 033c ecb5 9d3c ce6f a43c
00000120: eb14 043c 300e 803c b020 b43c e63c 163c
00000130: 9459 be3c 08d6 023c c0ea d63b d540 c8bb
00000140: b64a 863c dca0 d2bc 6dbc 963c 4024 9bbc
00000150: 41b9 32bb 232a fbbb 7e1b cb3c fd9a eb3b
00000160: 08fb ab3c d8e3 06bc 4916 f73b 3baa 823c
00000170: 62fb 9a3c e492 f4bb 63bc 923c 15f5 45bb
00000180: deca 1f3b 76a4 3cbb 04a2 92bc cfb6 463c
00000190: caab e6bb df9d 3bb8 92dd 8dbc d81a 47bc
000001a0: ef5b a3bc 5ee1 0eba bb5a a93c effb 95bc
000001b0: fba0 213c d456 ccbc e606 09bc 3e09 1a3c
000001c0: cbb1 2f3c 7f67 333c 1eb3 70bc d73c 3c3c
000001d0: 64cb a53c 9f67 03bc 9a7d 2f3c 43b7 ebbc
000001e0: da8e d83b bc32 da3b 288d 87bc 22d8 bebc
000001f0: cda0 cabc 4e1a 033d eeac 593c b095 523b
00000200: a346 a83c 00cb cd3b 3261 583a bfb1 c3bc
00000210: 3ade 5dbc 5263 79bc 144f 2d3c 87da 1fbb
00000220: 254b 823c 90e3 c33b 9c58 b23c a298 573c
00000230: 3db8 4abc 2caa adbc da30 b8bc c4e3 94bb
00000240: ad8a 71bc c8ed 073d a4df 833c 9ce8 41bb
00000250: b36b ca3c 46b6 d9bc b8c9 373c 7ab3 833c
00000260: eb22 73bc 6e38 aebb 4c98 a8bc a001 96bc
00000270: e1d2 a7b9 2a9f e8ba 736c 4ab9 7b0b b13c
00000280: 6af3 633c f7fb 5fbc 15e5 183d 5fea 97bc
00000290: f246 813b b78b 1d3c 52bd c8bb 7e90 5bbc
000002a0: 8604 933c 47b6 a33c 3aed d3bc 0fe1 e9bb
000002b0: e02a afbb eb99 0dbc 25e6 febb d825 813c
000002c0: 191d 4a3c 18be 773b dc07 963c 29ef 7bbb
000002d0: f08a afbc 0bb9 8e3b e1b2 b9bc 9956 68bc
000002e0: c529 15bc 067b e03b 8e96 c6ba afc2 833c
000002f0: 17b5 a73c 4a08 cbba 61ea dbb9 d7d2 b73c
00000300: 991d d0bb 8640 bfbb 003c 673b e073 9abc
00000310: eaf0 e73c c3bf 05bc f565 243c bd23 0d3c
00000320: e6ee 073c 153d 913c ac3e 81bc b08d 3b3c
00000330: 5cec 863c 9bdd 863c e8a1 38bc 940f f8bb
00000340: ea1e 1bbb d2c8 35bc 2897 c53c 41e5 8ebc
00000350: 8afd 2dbc 05bf ae3a 27ce 4f3c 485b 893c
00000360: 8169 803b 2b1c c03c 7b94 a2bb 8801 8e3c
00000370: e5ec 9dbc 3131 fd3b f10f 023b 167c c73c
00000380: 3303 a9bb c0ee a4bc 8470 8a3c cc45 3fbc
00000390: 1b78 36bc 28ee bb3b 7150 5f3c a33d 913b
000003a0: c4bb c0bc 932a 183a 9554 6fbc 2193 8bbc
000003b0: e9e8 2cbc 99ae 8d3c 746a 763b 9ab5 14bc
000003c0: 6831 533b 718e 073d cdfa aebb f65a d33c
000003d0: 6a6c 7e3c 7cc4 513c acf7 b0bc 640c 84bc
000003e0: 71c5 123c 0033 8fbc e2ad b13c 9cdf 093b
000003f0: caf2 a13c 06ea f0bb b97a 64bc b6f1 ca3c

layer1.bias f4 [32]
0.01505369 -0.011875467 -0.0025206495 -0.01013875 -0.008250341 -0.024828305 0.0106826695 0.015330646
-0.0015494432 -0.002057231 -0.0009186899 -0.0063632224 -0.022675373 0.014789496 -0.017676447 0.022221342
-0.025048532 0.021824652 0.012004781 -0.019888949 -0.009278813 -0.022304542 -0.010647961 -0.017865224
0.008480904 0.012448161 0.004499879 -0.008422762 0.024287794 0.015466529 0.0168271 -0.017287727
00000000: c1a3 763c 5291 42bc 7b31 25bb 001d 26bc
00000010: 702c 07bc bb64 cbbc 5d06 2f3c 642d 7b3c
00000020: b016 cbba 9cd2 06bb 3cd4 70ba 9482 d0bb
00000030: b4c1 b9bc a44f 723c 32ce 90bc 8809 b63c
00000040: 9432 cdbc 9dc9 b23c b3af 443c 26ee a2bc
00000050: 2a06 18bc 04b8 b6bc c974 2ebc 175a 92bc
00000060: 7df3 0a3c 5ff3 4b3c b973 933b a0ff 09bc
00000070: 32f7 c63c 5367 7d3c fdd8 893c fe9e 8dbc

layernorm1.weight f4 [32]
0.98920226 1.0095383 0.99773556 1.0161628 0.9990995 0.9845957 0.9952627 0.98972654
0.9722352 0.99709857 0.9897557 0.9968251 1.027537 0.9536788 0.99289674 1.0129997
0.9970359 0.99185115 1.0325309 0.9697843 0.9947619 0.99144924 0.99803495 1.0184005
1.0199528 0.9949578 0.99110514 0.9946031 1.0079409 0.989252 1.0185642 1.0372626
00000000: 5c3c 7d3f 8d38 813f 996b 7f3f 9f11 823f
00000010: fcc4 7f3f 770e 7c3f 89c9 7e3f b85e 7d3f
00000020: 68e4 783f da41 7f3f a160 7d3f ee2f 7f3f
00000030: 5586 833f 4b24 743f 7b2e 7e3f f9a9 813f
00000040: bf3d 7f3f f5e9 7d3f f929 843f c943 783f
00000050: b7a8 7e3f 9ecf 7d3f 387f 7f3f f35a 823f
00000060: d08d 823f 8eb5 7e3f 11b9 7d3f 4f9e 7e3f
00000070: 3504 813f 9e3f 7d3f 5060 823f 05c5 843f

layernorm1.bias f4 [32]
-0.0079380125 0.002516825 -0.011564655 0.009733869 0.020199055 -0.013552257 -0.0019747082 -0.021287296
0.0016759787 -0.013377513 -0.008317493 -0.011937951 0.01350436 0.012146394 0.0057664444 0.0044580027
-0.006467745 -0.010019667 0.02493321 -0.00577407 -0.010611948 0.0034004026 0.034048352 -0.0036464105
0.018503113 0.0026539008 -0.0047872 -0.004084543 0.019012196 -0.013037441 -4.905468e-05 0.02382438
00000000: 700e 02bc 51f1 243b ae79 3dbc ce7a 1f3c
00000010: 7d78 a53c 490a 5ebc 1b6a 01bb b262 aebc
00000020: 83ac db3a 5b2d 5bbc 1846 08bc 6597 43bc
00000030: 6441 5d3c ab01 473c 71f4 bc3b 7014 923b
00000040: 61ef d3bb 8829 24bc bb40 cc3c 6934 bdbb
00000050: bcdd 2dbc 4ad9 5e3b 4976 0b3d 9ef8 6ebb
00000060: d793 973c 11ed 2d3b f2dd 9cbb a1d7 85bb
00000070: 77bf 9b3c fe9a 55bc 10c0 4db8 592b c33c

blocks.0.fcn_layer.weight f4 [32, 32]
0.15769273 -0.10130622 -0.050467458 -0.083438195 0.024731914 0.008853838 0.147592 -0.002664468
0.06778481 -0.021072492 -0.101315185 -0.006402592 -0.01608582 0.074675344 -0.12109524 -0.009750051
0.11667348 0.043170992 -0.034745485 0.03982527 -0.07313644 -0.10556243 0.1319601 0.11588182
-0.16393146 0.06400039 0.07905991 0.13039963 -0.14069715 0.009291255 0.035702992 0.016349498
0.06167177 0.0832736 0.07056135 -0.060154393 0.053270914 0.12793042 0.024186444 0.037636004
-0.12680486 -0.11691099 0.008903565 -0.11549959 -0.12929256 -0.06641213 0.023885665 -0.07884958
0.15650815 0.085203335 0.009380442 -0.089189984 -0.15380558 -0.008247989 0.16907911 -0.02746372
0.010377207 0.085840166 0.12904857 0.15656407 -0.092689306 0.14748544 0.050269876 0.0202438
0.038953222 0.06917984 -0.06439472 -0.12865973 0.080342144 0.004824696 -0.07481734 0.065992124
-0.1084016 -0.114473775 -0.1441945 -0.08031757 0.111837134 0.060486596 0.07773877 -0.07251203
0.07090101 0.07968618 -0.1645614 -0.10258956 0.1463674 0.0721674 0.015152563 -0.075363204
-0.060699116 -0.042271588 0.16940498 -0.06543329 0.088383496 0.1298748 -0.06195738 -0.023250312
-0.113001354 -0.032062773 0.16249391 -0.038488887 -0.11564738 0.023227716 0.069611 0.15341207
0.13567986 0.012950934 0.0036031376 0.03437286 0.1615392 0.030319858 0.039996542 0.10935026
0.12803999 -0.028095813 0.17123766 0.03711959 0.056515064 -0.08788346 -0.1531377 0.039448697
-0.08074093 0.15060513 -0.14203706 -0.17229986 -0.09537758 0.16608608 0.028722404 0.14125372
-0.024099633 -0.026219258 0.031155339 -0.21080568 0.13933504 -0.015085037 0.16813342 0.017240321
0.03724172 0.17895222 0.12732026 -0.06150955 0.15938036 0.007861238 -0.09087256 -0.0588274
-0.12216765 -0.075333215 0.003783371 -0.021101613 -0.04006484 0.16373435 -0.124658845 0.03140552
-0.13337304 -0.15732543 -0.05662275 0.109881274 0.12572017 -0.06674194 -0.07436183 0.0067709265
0.029042581 0.020058846 0.16849068 0.017107742 -0.054142866 0.102622084 -0.081749804 -0.16093913
0.029389026 0.004984842 0.13860925 0.15345135 -0.08151851 -0.14400852 0.20937498 -0.06740039
0.014993257 -0.063302495 0.00011244877 0.019734403 0.052940316 0.018837979 0.13921729 0.08636281
-0.1312532 -0.10766283 -0.007241986 0.08888972 0.16584761 -0.05053911 -0.06118788 0.08730188
-0.012982998 0.075513735 0.004986537 0.021584455 0.049214065 -0.054092165 -0.12549518 0.089382894
-0.054586563 0.075333424 0.06892002 0.039768394 0.19799057 -0.1417656 -0.07086346 -0.0015489461
0.0018259402 0.056932513 -0.14693777 0.0006229066 -0.07735219 0.14282432 -0.120389715 -0.010145526
-0.13741559 0.16235222 0.06503414 -0.15190327 0.07956477 -0.15595572 0.12124557 -0.0029559426
0.12227557 0.13568018 0.17299828 -0.16133843 0.15958393 -0.05968654 0.15049186 0.08137409
-0.11987934 -0.051437277 -0.04195317 0.1728345 0.08834247 -0.10485044 -0.14850324 -0.048153713
-0.009672448 0.0056813713 0.18433629 0.07447317 0.16019082 0.032351196 0.11157497 -0.12769268
0.16745608 0.16425674 -0.07966569 0.12877983 -0.08181872 0.009122561 -0.009597216 -0.14941508
00000000: 347a 213e a379 cfbd f7b6 4ebd a5e1 aabd
00000010: 959a ca3c b00f 113c 5b22 173e 5b9e 2ebb
00000020: c3d2 8a3d 38a0 acbc 567e cfbd d6cc d1bb
00000030: 69c6 83bc 63ef 983d c800 f8bd aebe 1fbc
00000040: 81f2 ee3d 11d4 303d 4851 0ebd d31f 233d
00000050: 8fc8 95bd 1e31 d8bd 8c20 073e 7353 ed3d
00000060: a6dd 27be a312 833d 29ea a13d 7b87 053e
00000070: ea12 10be 593a 183c 4d3d 123d 62ef 853c
00000080: 8a9b 7c3d 598b aa3d 7882 903d 7464 76bd
00000090: 9a32 5a3d 3100 033e a622 c63c 3628 1a3d
000000a0: 22d9 01be 076f efbd 42e0 113c 0d8b ecbd
000000b0: 4565 04be 1503 88bd dfab c33c e37b a1bd
000000c0: ac43 203e 167f ae3d 6db0 193c 3da9 b6bd
000000d0: 367f 1dbe 9322 07bc 1323 2d3e 98fb e0bc
000000e0: 2905 2a3c f8cc af3d 4f25 043e 5552 203e
000000f0: e4d3 bdbd 6c06 173e c9e7 4d3d 53d6 a53c
00000100: 6a8d 1f3d 29ae 8d3d 61e1 83bd 60bf 03be
00000110: 6c8a a43d 7c18 9e3b d539 99bd e126 873d
00000120: a801 debd 3a71 eabd b9a7 13be 8a7d a4bd
00000130: de0a e53d cbc0 773d 8135 9f3d 3081 94bd
00000140: 8c34 913d 8232 a33d c982 28be 7a1a d2bd
00000150: 56e1 153e 80cc 933d 7542 783c 0658 9abd
00000160: a39f 78bd f924 2dbd 8078 2d3e e401 86bd
00000170: 6802 b53d e6fd 043e 06c7 7dbd 7077 bebc
00000180: 416d e7bd 4154 03bd ce64 263e 86a6 1dbd
00000190: 89d8 ecbd 0d48 be3c 3690 8e3d 0e18 1d3e
000001a0: a9ef 0a3e 2730 543c 9e22 6c3b 8eca 0c3d
000001b0: 886a 253e 5a61 f83c 6ad3 233d 07f3 df3d
000001c0: ea1c 033e 3129 e6bc ed58 2f3e b60a 183d
000001d0: 577c 673d 3efc b3bd 21d0 1cbe f594 213d
000001e0: 805b a5bd 3b38 1a3e 2a72 11be 606f 30be
000001f0: 5255 c3bd 7812 2a3e 3f4b eb3c d1a4 103e
00000200: 986c c5bc c5c9 d6bc 7b39 ff3c 72dd 57be
00000210: d8ad 0e3e 3b27 77bc 2b2b 2c3e 933b 8d3c
00000220: c68a 183d 403f 373e 3e60 023e 70f1 7bbd
00000230: 9b34 233e 6ccc 003c 651b babd 00f5 70bd
00000240: 0833 fabd 4d48 9abd 6ff2 773b 4add acbc
00000250: 081b 24bd faa9 273e 234d ffbd 13a3 003d
00000260: f192 08be eb19 21be 42ed 67bd 6f09 e13d
00000270: cabc 003e 00b0 88bd 044b 98bd a6de dd3b
00000280: b5ea ed3c 7352 a43c d288 2c3e 8925 8c3c
00000290: e9c4 5dbd 872b d23d 716c a7bd 3acd 24be
000002a0: 41c1 f03c e357 a33b 95ef 0d3e 5a22 1d3e
000002b0: 2df3 a6bd f876 13be 6566 563e 3709 8abd
000002c0: 47a6 753c bda4 81bd 79d2 eb38 0baa a13c
000002d0: f2d7 583d 1b52 9a3c fa8e 0e3e fcde b03d
000002e0: 3d67 06be 547e dcbd 2f4e edbb d00b b63d
000002f0: f5d3 293e 1902 4fbd 24a0 7abd 54cb b23d
00000300: a4b6 54bc f2a6 9a3d 1b66 a33b e2d1 b03c
00000310: b094 493d bf8f 5dbd cf81 00be 610e b73d
00000320: 2996 5fbd 6948 9a3d f025 8d3d 2fe4 223d
00000330: 0abe 4a3e 002b 11be dd20 91bd 0206 cbba
00000340: 6354 ef3a 1132 693d db76 16be 8e4a 233a
00000350: d36a 9ebd 8a40 123e e28e f6bd 6c39 26bc
00000360: acb6 0cbe a93f 263e 9f30 853d 888c 1bbe
00000370: dbf2 a23d dbb2 1fbe 994f f83d 7db8 41bb
00000380: 9d6b fa3d bfef 0a3e 7626 313e e735 25be
00000390: f869 233e e079 74bd 8a1a 1a3e 75a7 a63d
000003a0: 4d83 f5bd e5af 52bd 16d7 2bbd 87fb 303e
000003b0: e6ec b43d d4bb d6bd 3c11 18be d43c 45bd
000003c0: 3079 1ebc cc2a ba3b a7c2 3c3e 6485 983d
000003d0: 1009 243e b082 043d 6b81 e43d dfc1 02be
000003e0: 9b79 2b3e eb32 283e c427 a3bd dcde 033e
000003f0: 9390 a7bd cb76 153c a43d 1dbc 4400 19be

blocks.0.fcn_layer.bias f4 [32]
0.07695085 -0.031483956 -0.14527673 -0.05545034 -0.00540941 0.067478865 0.029185222 0.05956665
0.07473583 0.06661575 0.14229137 -0.14075911 -0.12961958 -0.06998925 0.051664267 -0.07980586
-0.0498041 -0.077718325 0.04357456 0.059429586 0.09394185 -0.12659594 0.12312088 0.093425535
0.13757263 0.040768813 0.16153178 0.16091225 0.051753785 -0.011998999 -0.11619898 0.025505567
00000000: 6898 9d3d 52f5 00bd 6cc3 14be e51f 63bd
00000010: 6c41 b1bb 5c32 8a3d d915 ef3c 29fc 733d
00000020: 190f 993d d76d 883d d4b4 113e 2823 10be
00000030: ffba 04be 8656 8fbd e99d 533d 4171 a3bd
00000040: 62ff 4bbd c92a 9fbd 3d7b 323d 706c 733d
00000050: 9664 c03d 5ea2 01be cd26 fc3d e355 bf3d
00000060: d7df 0c3e 33fd 263d 9668 253e 2ec6 243e
00000070: c7fb 533d 7397 44bc bbf9 edbd 0df1 d03c

blocks.0.layer_norm.weight f4 [32]
1.0196851 1.0176833 0.932176 1.0073022 1.0669452 1.2880977 1.0170033 1.021731
1.0258232 1.3618014 1.0310489 1.0445898 1.0068455 1.2371728 0.9920449 1.2207185
0.9978693 1.2508607 1.0766615 0.990778 1.048065 1.2171286 1.0212629 1.0630411
1.0148184 1.330867 1.2249322 1.2332007 1.0906752 1.2883484 0.9819091 1.2741544
00000000: 0b85 823f 7243 823f 16a3 6e3f 47ef 803f
00000010: a991 883f 63e0 a43f 2a2d 823f 15c8 823f
00000020: 2d4e 833f 824f ae3f 69f9 833f 1eb5 853f
00000030: 50e0 803f ae5b 9e3f a8f6 7d3f 8140 9c3f
00000040: 5d74 7f3f 341c a03f 0bd0 893f a1a3 7d3f
00000050: fe26 863f dfca 9b3f beb8 823f bb11 883f
00000060: 92e5 813f da59 aa3f 94ca 9c3f 85d9 9d3f
00000070: 3f9b 8b3f 9ae8 a43f 655e 7b3f 7e17 a33f

blocks.0.layer_norm.bias f4 [32]
0.020072255 0.039986085 -0.057733227 -0.011248829 0.04764636 0.265042 0.014637648 0.02648165
0.018670969 0.29040563 0.019801868 0.037854373 0.008151208 0.24379404 -0.009349842 0.24003804
-0.011499148 0.24884142 0.06414741 0.0005947159 0.03681407 0.24093427 0.03436647 0.060391895
0.014445333 0.27806923 0.23460421 0.24709575 0.038320355 0.26340213 -0.0268497 0.2650838
00000000: 926e a43c 73c8 233d ad79 6cbd 024d 38bc
00000010: d428 433d 96b3 873e bfd2 6f3c 0cf0 d83c
00000020: dcf3 983c 0cb0 943e 8737 a23c 300d 1b3d
00000030: a58c 053c 25a5 793e 1430 19bc 88cc 753e
00000040: ec66 3cbc 49d0 7e3e b85f 833d b5e6 1b3a
00000050: 5aca 163d 79b7 763e dbc3 0c3d 7e5d 773d
00000060: 1eac 6c3c 175f 8e3e 163c 703e ab06 7d3e
00000070: cef5 1c3d a5dc 863e e7f3 dbbc 10b9 873e

last_layer.weight f4 [1, 32]
0.07916831 0.014497211 -0.00061077124 0.16886906 0.072059974 -0.32572147 0.11967091 0.10119201
0.11295391 -0.33925322 0.063164465 0.16946436 -0.005751621 -0.36131784 -0.07619238 -0.3470847
0.042903107 -0.3285278 0.1859321 -0.0149228 0.21826038 -0.29560673 0.072311275 0.1427433
0.10956477 -0.33254725 -0.34363174 -0.28886384 0.2296037 -0.32303444 0.024074623 -0.281735
00000000: ff22 a23d b685 6d3c 2a1c 20ba 03ec 2c3e
00000010: 2e94 933d f7c4 a6be 0616 f53d c23d cf3d
00000020: 6154 e73d 99b2 adbe 5f5c 813d 1188 2d3e
00000030: 1878 bcbb a7fe b8be c00a 9cbd 16b5 b1be
00000040: 2bbb 2f3d cc34 a8be fc64 3e3e c27e 74bc
00000050: a67f 5f3e c459 97be ef17 943d 4d2b 123e
00000060: 7e63 e03d a243 aabe 80f0 afbe f6e5 93be
00000070: 3b1d 6b3e c564 a5be 2538 c53c 923f 90be
