models/news.tflite (tflite, 206748 bytes, 9 tensors)

Const_1 f4 [32]
00000000: 01a2 babc 383a 853b c297 f0bc eedd 05bc
00000010: c116 abbb b9cc 70bc 5ade b23c 3064 c23c
00000020: e9b8 593c 6ea6 933c a775 9a3c 4dd0 4ebc
00000030: 0e80 c53c 2b16 a8bc fa43 db3c 8cae 4b3c
00000040: 53ca 9bbc c122 b6bc 9549 5e3b 966d a13c
00000050: 9712 2f3c 4837 fb3c 5839 873c 5fb3 5c3c
00000060: 988d 78bc 97f7 feba ab77 db3c c296 673c
00000070: 2fde bb3b 3fc8 aa3c 6d05 943c 9b57 b0bc
-0.022782328 0.004065778 -0.029369239 -0.008170588 -0.0052212183 -0.014697247 0.021834541 0.023729414
0.013288715 0.018023696 0.01885493 -0.012622905 0.024108913 -0.020518383 0.026765812 0.012431752
-0.019017374 -0.022233369 0.003391837 0.019705575 0.0106855845 0.030666009 0.016506836 0.0134705
-0.015170477 -0.001945245 0.02679046 0.014135065 0.0057332735 0.020847438 0.018068993 -0.021526149

Const_2 f4 [32]
00000000: 4529 7b3f 9deb 7c3f 7bfb 7f3f a7c7 863f
00000010: cf74 813f dce6 7c3f b000 733f e902 7f3f
00000020: 7eae 793f 65f2 743f 3404 6f3f 83c2 6f3f
00000030: 46b5 823f 45d2 813f 0497 7d3f 68a4 843f
00000040: 322c 7f3f 5a54 7b3f 1eb1 7a3f 886f 753f
00000050: 51fb 6f3f 822e 7e3f 73c5 833f dc61 803f
00000060: a464 733f b499 813f 9cc8 7f3f bc5a 7d3f
00000070: da58 783f 6957 7a3f ee2e 753f 0b2b 823f
0.9810985 0.9879702 0.99993104 1.0529679 1.0113772 0.98789763 0.94922924 0.99613816
0.9753188 0.95682365 0.9336579 0.93656176 1.021157 1.0142294 0.99058557 1.0362673
0.9967681 0.98175585 0.9792651 0.9587331 0.93742853 0.99289715 1.0294632 1.0029864
0.9507544 1.0125031 0.9991548 0.98966575 0.97010577 0.9778963 0.95774734 1.0169386

Const_3 f4 [32]
00000000: 2a89 efbc 3ada ff3b a996 863b 5ab2 6c3c
00000010: 83d3 85ba 61ee 85bc f7f2 15bd 181c 33bb
00000020: 70c5 043d db9f 1ebd fffb 793b 2f84 e0bc
00000030: 0e75 15bb b7d2 1e3b 3389 e03c 7ad2 b2b9
00000040: decb cfbb a8b5 883a 4335 d63c 7e3a 1d3c
00000050: 5731 51bd cc20 9e3c 857b 1f3c 9699 943c
00000060: d1c2 9ebd 4f42 f33c 1e3f 1c3d 9474 893b
00000070: 55c7 31bd d8a6 463d ae8a c5bc 2d6c 12bc
-0.02924021 0.007807997 0.0041073156 0.014446819 -0.001021013 -0.01634902 -0.036608662 -0.0027329978
0.032414854 -0.03872667 0.0038144586 -0.02740678 -0.0022805366 0.0024234483 0.027409172 -0.00034107623
-0.0063414415 0.0010430114 0.026148444 0.009596465 -0.051072445 0.019302748 0.009734039 0.018139642
-0.07752002 0.029694704 0.03814613 0.0041948054 -0.04340299 0.04849896 -0.02411398 -0.008936924

Const_5 f4 [32]
00000000: b53b e83c 212a 77bc 5b38 373d 6c4f 3ebe
00000010: 4e41 a43d 42e5 343e 8fb5 6f3d 8382 91bd
00000020: 4e0c 68bd cce9 17be c624 07bd 3d28 d8bd
00000030: 65fe f1bd ef9e 0bbe 9322 c9bd 5005 e43b
00000040: 4248 943d 8d6c d63d fb17 6abd d65d 0c3e
00000050: 9bb8 e6bd 0bfb 0d3e 8329 9f3d acfd 72bc
00000060: 8169 c73c 0fec 393e 4876 46bd 3d4a fcbc
00000070: 2958 be3d 542d 1dbe 4597 7b3d 5561 00be
0.028348783 -0.015085728 0.04473148 -0.18584985 0.080202684 0.1766558 0.058522757 -0.07104971
-0.05665236 -0.1483528 -0.032994054 -0.1055455 -0.118161 -0.13634847 -0.09821048 0.006958641
0.072403446 0.10469923 -0.057151776 0.1370767 -0.112656794 0.13865297 0.077715896 -0.014830988
0.0243423 0.18156455 -0.048452646 -0.030797118 0.09294159 -0.15349323 0.06142356 -0.12537129

Const_6 f4 [32]
00000000: 985e 8f3f 2239 803f 518e 873f 9878 863f
00000010: 7924 8c3f 5fd2 8b3f f038 903f 31c3 883f
00000020: 4ae0 7a3f cd25 a53f 1f36 7b3f b142 803f
00000030: c4ba a23f 08a0 8a3f 497e 883f da0b 943f
00000040: 9ff2 7a3f 6e3c 803f 03e4 883f 931d b53f
00000050: 6133 883f 52f0 ac3f 3d27 b03f a54b a63f
00000060: 4455 843f 41d8 a03f 5130 8b3f 86e2 8d3f
00000070: d605 8c3f f544 873f a02b a23f 1499 693f
1.1200743 1.0017436 1.0590307 1.0505552 1.094863 1.0923575 1.1267376 1.0684568
0.9799849 1.2902161 0.9812946 1.0020353 1.2713246 1.0830088 1.0663539 1.1566117
0.9802646 1.0018442 1.0694584 1.414965 1.064068 1.351084 1.3761975 1.2991835
1.0338521 1.2565995 1.087412 1.1084754 1.0939281 1.0567919 1.2669563 0.91249204

Const_7 f4 [32]
00000000: d3ae 5b3d 92ea efbc 139f 0a3d 3a67 e43b
00000010: 2612 573d c310 943d 905f 973d 6e99 013d
00000020: 1c0e 19bd 0063 8a3e d69b 62bd 23b0 aabd
00000030: 8816 033e ca76 a53d 8b87 283d 8e11 903d
00000040: 0636 29bd eef1 943c 77a1 a23d 33bb a53e
00000050: 62a3 283d 0bcc 8e3e c6b6 9f3e 4fe7 8d3e
00000060: f902 8e3c c2c8 8a3e 99a7 3c3d 25c8 b53d
00000070: 6a26 033d df10 263d 304a 863e c69c bebd
0.053633522 -0.029286657 0.03384311 0.0069703134 0.052507542 0.072297595 0.07391274 0.031640463
-0.03736697 0.27028656 -0.055324398 -0.08334377 0.12801564 0.08079298 0.04114489 0.07034598
-0.041311286 0.018181767 0.07940953 0.32369384 0.04117144 0.27890047 0.31194133 0.27715537
0.017335402 0.2710629 0.04605827 0.08876065 0.032019056 0.040543433 0.26228476 -0.09307246

MatMul f4 [32, 1536]
00000000: 9290 9b3b 2210 bcbb 053f f3bb a800 453c
00000010: 1af0 70ba 50ca 90ba 0153 6bbb b427 bc3c
00000020: 7d92 14bc 5270 973c d613 443c 9af6 1ebb
00000030: 971e 083c 7e8d 0bbd 2141 653c fe7a 383c
00000040: d015 eb3a 61da f73c 75f7 b8bc 2bfc 3b3c
00000050: 9fd3 4d3a 1370 2a3b 9f28 9ebb a9e5 32bc
00000060: 29b8 febc 4f89 45ba 46c7 0bbc 8650 ddbb
00000070: 85a6 353c 9887 1b3d 581e ac3c ac80 573a
00000080: 97f6 00bc 3bd9 23bd 6385 82bc 8084 4abc
00000090: 3f6c 593c f4d0 283c 5d26 943b dd11 653c
000000a0: 27ce f83c de5e 0f3d 09f6 853c 875b 603c
000000b0: ec73 aa3c 34c9 773b ba5a 47bc 0344 c8bc
000000c0: 1828 6f3c c06f 633c edaa 863b aa8b 6eba
000000d0: f2fd 9cbc f7c9 de3c 9e79 96bc b740 d9bc
000000e0: 601a 95bb 5acc 80bc 68fe 37bb 84f8 ae3c
000000f0: fa32 f13b e754 c1bc 50aa debb 696b 98bc
00000100: 7357 47bb 60e3 6fbc 1331 d73b 2258 9fbb
00000110: 6fdc 9a3b 96bd a3bc 6bd9 db3c 77d7 a33c
00000120: d054 083d 493b b13c 68f6 633c 57ad eabc
00000130: 35a2 203c 7a8f 113d 4b11 e8bb 8ceb af3b
00000140: bbb7 693c c8db 9cbc 9998 18bc 1645 60bc
00000150: 9f54 2e3c c65c 993c a6bb bcbc 08f6 813b
00000160: 43cc 0d3d c77b 5b3b 613e 953a fcca 42bc
00000170: ec87 bd3c 5132 833c b45f 443c ab3b a43c
00000180: b549 3bbd 2209 2bbc 69a3 273b ba03 8c3b
00000190: 287e 7f3c e1ca cebb eb7b f9bb 354e 72bc
000001a0: 62f6 a53c 4bef aa3b fbb0 21bc 5b2f 53bb
000001b0: 3ba7 863a f112 00bd 3223 973c 5969 4739
000001c0: ce83 f2bc 4025 fe3c da22 8fbc 16b1 dbbb
000001d0: d769 063b e5bb 0abc 3af5 0a3c f2c1 05bd
000001e0: ba86 aa3b b561 9e3b 8951 2a3c b6c6 763c
000001f0: e5db 3f3b 6291 6fbc 9cb5 733c 100b 8f3c
00000200: 3d34 9d3c 50b4 38bc 256e 743c 2b5f 1cbc
00000210: f5e1 aabb 6d0f 2a3c 774c e7bb 2902 97bc
00000220: 472e 84bc 4c77 3b3b dc3e 803b 663b ea3c
00000230: 7a45 84bc f044 71bc 703a aa3c 894f dcbc
00000240: 72c0 173c 42b3 34bc 6ff2 ec3c 33c1 a33b
00000250: 51ef c33c 7acd d93c ae3f 96bb 4809 30bc
00000260: a0c0 843c 6f92 ea3b c63c 34bc 5741 41bc
00000270: c47f d53c dc14 07bd ccc5 6dbc 3159 e0bb
00000280: d806 0ebc e953 6dbb 3dae d3bb cb6e 9f3c
00000290: 56e0 5abc f032 c9bc 5559 b93b 160d 443c
000002a0: 0050 f3bb c260 13bc 182e 74bc 18b7 25bc
000002b0: a52d fa3c af99 023c 383c c23c c317 143c
000002c0: d508 ed3c 0e83 23bc 3f12 cdbc 489b b03c
000002d0: b60d cbba aa57 43bc 55e3 a8bb c3b8 c7bc
000002e0: 87a5 39bb 5467 b63c 1bf9 803b 0095 afbc
000002f0: 1d8f c3bb 2395 a73c e550 8bbc 9b8e 90bc
00000300: d69e febb 97cd 9dbc c0dc ba3b 58a9 5a3b
00000310: 50af 433b dc78 2ebc 0131 e83b e4da a53a
00000320: 9ce2 17bd 6153 883c db02 2e3c 8911 36bc
00000330: 1c06 b4bc 8edf 913c 367d 0d3d 4f6a b43c
00000340: 4f31 743c 73bb e8bb 0ee3 11bd 70f5 adbc
00000350: 26b4 aebc e03f 75bb ec45 acbc 9143 c4bc
00000360: 6501 dcbc 89f7 033d 8cf5 393b e406 f439
00000370: b465 e0bc 62e1 c13c ce66 0dbc 7e20 f93a
00000380: 9ba4 66ba cf3b c1bc 98c8 353b 6985 0abc
00000390: 047e 253c 26ec 9f3b da99 243c e502 f2bc
000003a0: ec80 9ebb c08e 90bc b6d1 863a 9225 953c
000003b0: ef10 02bc 5b8d 9bbc ddb3 a8bc 739a 033d
000003c0: 1b47 353c e8f7 51bc 439a 193b 0dbc dbba
000003d0: 8cee 19bc b30b e43c 8ac0 55bc 485c 5fb9
000003e0: b5ad 0b3c ed0a d8b8 cf33 103b 2030 9bbb
000003f0: 8bc6 913b 66dc 1f3b 135c 1c3c 6dd6 05ba
0.0047474587 -0.005739228 -0.007423284 0.012024082 -0.00091910514 -0.0011046622 -0.0035907628 0.02296815
-0.009068129 0.018486176 0.01196762 -0.0024255873 0.008308074 -0.034070484 0.013992579 0.011259792
0.0017935578 0.030255498 -0.022578934 0.011473696 0.00078516634 0.0026006743 -0.0048266198 -0.010919013
-0.031093674 -0.0007535414 -0.008531397 -0.006753984 0.011087065 0.03797111 0.021010563 0.0008220773
-0.007871292 -0.04000209 -0.015932744 -0.012360692 0.013270437 0.010303725 0.004521175 0.01398131
0.030371739 0.03500258 0.01635267 0.013693697 0.020807229 0.0037809135 -0.012167627 -0.024446493
0.014596961 0.013881624 0.0041097314 -0.0009099791 -0.01916406 0.027195914 -0.018368538 -0.026520116
-0.0045502633 -0.015722442 -0.0028075222 0.021358736 0.007360813 -0.023600055 -0.006795205 -0.018605905
-0.0030417114 -0.014641613 0.0065671294 -0.004862801 0.0047259848 -0.019987863 0.026837071 0.020000203
0.03328401 0.021634715 0.013913728 -0.028647108 0.009804298 0.03553722 -0.0070821396 0.0053686555
0.014264996 -0.019147769 -0.009313726 -0.013688346 0.010640292 0.018720996 -0.023038696 0.003966097
0.034618627 0.0033490525 0.0011386388 -0.011889216 0.023136102 0.016015204 0.011985708 0.020047983
-0.04572459 -0.010439189 0.0025579578 0.004272905 0.015594043 -0.006310806 -0.007613649 -0.014789154
0.020259086 0.005216514 -0.009868856 -0.003222427 0.0010273227 -0.031268064 0.0184494 0.00019017364
-0.029603865 0.031023622 -0.017472673 -0.00670446 0.0020509863 -0.008467649 0.008481318 -0.032655664
0.005204049 0.004833425 0.010395416 0.015062025 0.0029275354 -0.014622064 0.014874842 0.01746133
0.019189948 -0.011273459 0.014918839 -0.009544174 -0.0052149245 0.010379654 -0.007058676 -0.018433647
-0.016135348 0.0028605042 0.0039137434 0.028592777 -0.01614641 -0.014725909 0.020779818 -0.026893394
0.009262191 -0.0110290665 0.028924195 0.0049973964 0.023917826 0.026587237 -0.004585228 -0.0107444
0.016205132 0.0071585695 -0.011000818 -0.011795363 0.0260619 -0.032978877 -0.0145124905 -0.00684657
-0.008668624 -0.0036213344 -0.00645998 0.01946201 -0.01335915 -0.024560422 0.005656401 0.011966011
-0.007425308 -0.008995237 -0.014903568 -0.010114454 0.030539343 0.007971211 0.023710355 0.009038868
0.028934876 -0.009979976 -0.025033114 0.021558419 -0.0015491757 -0.011922756 -0.005154053 -0.024380093
-0.0028327422 0.022266068 0.0039359457 -0.021433353 -0.005967988 0.020456856 -0.017006347 -0.017646125
-0.0077703996 -0.019263072 0.005702585 0.0033365097 0.0029859133 -0.010648932 0.00708592 0.0012653735
-0.037081346 0.01664132 0.010620798 -0.011112579 -0.02197557 0.017806794 0.03454324 0.022023348
0.014904334 -0.007102424 -0.035616927 -0.021235198 -0.021326136 -0.0037422106 -0.021029435 -0.023958
-0.026856134 0.03221849 0.0028375117 0.0004654444 -0.027392246 0.023667041 -0.008630468 0.0019006876
-0.0008798332 -0.02358809 0.0027737971 -0.008454659 0.010100845 0.004880446 0.010046447 -0.029542396
-0.004837146 -0.017646194 0.0010285887 0.018206391 -0.007938608 -0.018988302 -0.020593578 0.032129716
0.011064316 -0.012815453 0.0023437894 -0.0016764418 -0.009395253 0.02783761 -0.013046393 -0.00021301315
0.008525302 -0.00010301718 0.0022003537 -0.0047359616 0.004448717 0.0024392842 0.009543437 -0.00051054993

MatMul_1 f4 [32, 32]
00000000: 2164 143e 529d 91bc a33d 323d 9706 37be
00000010: 14b3 1dbd e727 ad3d eece 8c3c 292a 0cbe
00000020: a64b acbd 5323 ab3c c264 48be d73f 2c3e
00000030: cafc 6d3e 7a68 c2bb 27bc 9f3d 5d96 573e
00000040: 9191 353e 9048 ef3d 5084 cbbd a251 d4bd
00000050: fd53 d0bd 0d7e fabc 22fd e4bd d82f ca3d
00000060: 2d8c b0bd 387d 073e ccea 06be d295 35bd
00000070: 75c9 b93d 30d3 3b3e ce31 553d c60c a8bd
00000080: 67a3 92bb 9c64 1cbd 5725 073e 7ebc 3d3d
00000090: 9543 dd3d 92f3 55bd 57b2 a1bd ce58 793c
000000a0: e1e3 e9bd db4c 283e e7c2 883d 9397 42bc
000000b0: 8b5c 84bd 098f 153e 6fd0 2a3e b9bc 04be
000000c0: 4f4c 04be 5b07 c7bd 23da 95bd 750f 29be
000000d0: fc32 d8bb 8e8c f5bc 5eed 223d 127d 7fbd
000000e0: 7ba1 e33b b6d7 dabc 944f e0bc d617 9c3d
000000f0: 5501 a6bd ddb3 debd 8292 fe3c 8253 753d
00000100: 6402 1fbd d171 e53d 3977 a53d 1df7 40be
00000110: 7d40 e63d 0918 6cbd a7f6 c7bd 4fe5 cc3d
00000120: 3671 d3bb a71a 2dbd fafd 263d 993e 11bc
00000130: 580d c2bb 86f5 1c3d 17a6 c2bd fdc1 063e
00000140: ecfe 303d 9251 0c3e 81e5 50be 334d c63d
00000150: 753c b73d 235e 54be e529 c63d fd74 593d
00000160: d96c 10bd bd5a d03c 0a86 3fbe 45ed c2bd
00000170: 23ff fa3d 622b 143e e3b0 20be 2401 cc3d
00000180: 7171 563d 2f7a 803d 0677 f2bd a485 9cbd
00000190: 6621 9f3d 2da1 293e 05b3 fd3d 5af9 03bd
000001a0: f4ab 00bd 3afe c33d 0c76 d2bb de5c c7bc
000001b0: 8953 bfbc 8f98 4d3d 1c31 e4bd 6950 58bc
000001c0: dbd7 2c3d a506 21bd c982 4abc 9117 bf3d
000001d0: 305d d43c fc20 ccbd 3733 2d3e 7870 883d
000001e0: e588 e0bd e966 99bc 030f 31be 4a3d 573d
000001f0: fe1e cf3c 9e88 a6bd 98a8 b3bd 144b 793c
00000200: 5e88 45bc bc89 d8bd 6698 553b 5261 99bd
00000210: bf8c 01be 5ef3 acbd e3e6 09be b5d4 243b
00000220: 62c8 1d3e fbcc 1abe 14e3 013e 317e 92bc
00000230: b6da 8a3d 7fa4 373e a6a2 e03d f98b 25bc
00000240: c09a a7bd d174 01be ce2d f73d e1a4 19be
00000250: 2ecb 083d 4069 273d d5d2 3fbd b177 c4bd
00000260: b9b8 1cbe a525 c63d 9216 1939 3bb0 25bd
00000270: f40a 103c f774 a1bd 7802 16bd 2993 f7bd
00000280: 75b5 aabd 5ffe 9bbd ba54 c93d 0393 4fbe
00000290: eb4d 08be 1069 a9bb 45c0 97bd 3d76 cebc
000002a0: 311e 9cbd e7ed c7bd 02f1 f13c 0bea 19be
000002b0: 40eb d8bc f639 393e 4861 91bd 1067 313e
000002c0: bad2 073e d1d5 893d 2a6c 26be fbad 043e
000002d0: 8acf 08be 5bdb b93b 081c f73d b1b0 7d3d
000002e0: 9683 da3a 58d3 aabc 430b a7bd 40ae c73c
000002f0: 52cd cd3d 203a b13d 5882 11be 6e21 f5bd
00000300: 8b59 583d 72e5 33be dede 403d 05a2 3dbe
00000310: f9e9 68bc 7629 05be e679 2e3d 62b5 abbb
00000320: 5e53 e4bd b028 63bd 276c d53c 69d2 c23d
00000330: 786e 4b3e 1d0c 223e 33ee 3b3e 0161 d73d
00000340: 2aee c53d ca9e fb3d 25b3 943d 0612 28bd
00000350: c67b dcbd 99aa e3bd c653 8e3d 5d5e c2bd
00000360: 32da 293c afff 553e c78f b13d 4a25 1bbd
00000370: 4507 25be 4f9b 15bc 58e3 35bb 37e4 a0bd
00000380: 00dd ea3d f638 0dbe 7aae 31bd d331 c1bd
00000390: d4a3 bdbd 50f0 da3d 2430 18be 1c03 a7bb
000003a0: 3f0e d7bc 8bf3 d53d 919d 8bbc 90d4 123e
000003b0: 7e8a 3d3e 1ca3 303e ec1a 223e d2e2 383d
000003c0: fb38 b0bd 1356 d3bd a4a2 49bd 2b6d 9cbc
000003d0: c537 593d bac3 3e3d 80bc f8bc 0ccc 70bc
000003e0: 4e2c 8dbc fdea 86ba 65cd 83bd b507 363d
000003f0: c6c6 ecbd e7e9 a1bc 1a12 073d 994a 87bc
0.14491321 -0.017775211 0.043515813 -0.17873608 -0.03850086 0.084548764 0.017188516 -0.13687958
-0.08412866 0.020890867 -0.19569686 0.16821228 0.23240963 -0.0059328647 0.07799559 0.21053453
0.1773131 0.11683762 -0.09937346 -0.10367133 -0.101722695 -0.030577684 -0.11181094 0.09872407
-0.086204864 0.13231361 -0.13175505 -0.044332333 0.09071628 0.1834228 0.05204945 -0.08205561
-0.0044750455 -0.038181886 0.13197838 0.04632234 0.10803906 -0.05223424 -0.07895344 0.015218927
-0.114204176 0.16435568 0.066778 -0.011876958 -0.06462964 0.14605345 0.16681074 -0.12962617
-0.12919734 -0.097182 -0.07316997 -0.16509803 -0.0065978747 -0.029974248 0.039777152 -0.062375136
0.00694674 -0.026714187 -0.027381696 0.07621734 -0.08105723 -0.1087415 0.03107572 0.059894092
-0.03882064 0.112033494 0.080793805 -0.18844266 0.11242769 -0.05764011 -0.09763842 0.10004675
-0.006452705 -0.042261746 0.040769555 -0.008865022 -0.005922001 0.038320087 -0.095043354 0.13159938
0.043211862 0.13702992 -0.20400049 0.09682693 0.08947078 -0.20739035 0.096759595 0.053090084
-0.035260055 0.025433892 -0.18703476 -0.09517912 0.12255695 0.14469674 -0.15692477 0.09961155
0.05235428 0.06273305 -0.11839108 -0.076426774 0.07770042 0.1656539 0.12387661 -0.032220222
-0.031413987 0.09569974 -0.0064227637 -0.024336275 -0.023355262 0.05019432 -0.11142179 -0.013202765
0.042198043 -0.039312977 -0.012360283 0.09330667 0.025923342 -0.09967229 0.16914068 0.06662077
-0.109636106 -0.01872583 -0.17290883 0.052548684 0.025283333 -0.081315264 -0.08772391 0.015215654
-0.012056438 -0.10573146 0.0032592057 -0.074892655 -0.12651347 -0.08444856 -0.13466983 0.0025151197
0.15408471 -0.15117256 0.1268428 -0.017882438 0.06779997 0.17933844 0.10968523 -0.010104173
-0.08183813 -0.12642218 0.120692834 -0.15004303 0.033396892 0.04087186 -0.046831924 -0.09593142
-0.15304841 0.09675149 0.00014599625 -0.04045127 0.008791674 -0.078836374 -0.036623448 -0.120886154
-0.083353914 -0.07616877 0.098306134 -0.20270924 -0.13310973 -0.005169995 -0.074097194 -0.025202865
-0.07622946 -0.09762173 0.029533867 -0.15030687 -0.026479363 0.18088517 -0.07098633 0.17324471
0.1326398 0.06730235 -0.16252199 0.12956993 -0.1336042 0.005671901 0.120658934 0.061936084
0.0016671296 -0.02085273 -0.08156445 0.024375081 0.10048927 0.086536646 -0.14209878 -0.11969267
0.05281977 -0.17567995 0.047087543 -0.18518837 -0.01421594 -0.13004097 0.04259672 -0.0052401284
-0.111487135 -0.055458724 0.026052548 0.09512789 0.19866359 0.15824933 0.18352585 0.10516549
0.09664567 0.12286146 0.072607316 -0.041032813 -0.107657954 -0.11116523 0.06949572 -0.094906546
0.010366963 0.20898317 0.086700015 -0.03787736 -0.16116054 -0.009131267 -0.0027753916 -0.078560285
0.11467934 -0.1379126 -0.043379284 -0.09433331 -0.09259763 0.10690367 -0.14862114 -0.005096806
-0.02625191 0.10446843 -0.017042907 0.14338899 0.18509862 0.17249721 0.15830582 0.045138188
-0.08604618 -0.10319152 -0.04922737 -0.019095024 0.0530317 0.04657338 -0.030363321 -0.014697086
-0.01723304 -0.0010293421 -0.0643566 0.044440944 -0.115613505 -0.019764854 0.032976247 -0.016515063

MatMul_2 f4 [1, 32]
00000000: f4ae 883e 1ae7 133e c2f8 0c3e 7f55 2f3e
00000010: 2757 ac3d e56a 5d3e 5296 7a3e 1b58 de3d
00000020: d380 afbd 283e c8be ea52 d2bd 2510 6fbd
00000030: 178f b4be f5dc 4c3e 5ebd 243e ee1a 1f3e
00000040: e16d 07be 6192 0a3c 1936 d13d d42c c4be
00000050: 9053 fc3d 3925 d5be ea87 c0be fb41 d5be
00000060: ad24 ff3d 66cb cdbe 3e1d 573e 4ca0 8a3e
00000070: d3cd 463e 7a29 ee3d aa07 c6be 09f3 8abd
0.2669598 0.14443627 0.13766769 0.17122458 0.084150605 0.21622808 0.24471405 0.108566485
-0.08569493 -0.3910992 -0.10269721 -0.058365006 -0.3526542 0.20006163 0.16087863 0.15537617
-0.13225509 0.008457751 0.102153964 -0.3831545 0.12320626 -0.4162996 -0.37603694 -0.41651902
0.12458167 -0.40194243 0.21007249 0.27075422 0.19414453 0.11629005 -0.38677722 -0.067846365
