models/weather.onnx (onnx, 205430 bytes, 9 tensors)

layer1.weight f4 [32, 1536]
00000000: 6be7 aebc a67e 513c 224b be3c a8e5 2b3d
00000010: 8cc1 68bc c504 da3c eaee 29bb a269 023d
00000020: 0b5b 583d 28f3 943c 8b02 67bc 5185 7ebc
00000030: c2fe 8a3c 63d6 d2bc ff78 3ebc b71b d6bc
00000040: 6c66 4f3d fb9e 11bd f3b9 90bc 24a3 773c
00000050: 0fab a43c 86b1 043c 8b26 783c a53f bc3b
00000060: 981e d33b 1084 bfbc 9205 bcbc 5f32 383d
00000070: 7144 8bbc 2f8f 0ebb a044 e2bc 9bba 5b3b
00000080: da67 86bb 7846 9b3c 906b 35bc c5eb 40bc
00000090: c395 3d3b c12d 9f3c 5c0d e4bb 584e e4bb
000000a0: f252 c0bc 0193 a0bc 9e3a 80bb b5f6 183c
000000b0: b2a7 3cbb ddd0 6f3c 7b14 af3c 68fe 9d3c
000000c0: 8e41 003c f881 34bd 1b75 ebbc 5494 c53b
000000d0: 0ca5 223b 4de0 28bc 2a30 dd3c ba01 14bb
000000e0: 257c 7cbc 0287 ed3c e271 d23b 6447 e73c
000000f0: 5a3f aa39 94ac fabb dab1 4ebc 173d 063d
00000100: e804 a43c aacf acbc 83f1 a6bb 8ad6 093c
00000110: d35e b13c 130c fdbc 4c86 63bd 3e2c c23c
00000120: 8377 6cbc 1e0c d0b9 015a ab3b 6819 26bc
00000130: 0f3c 54bd 1d20 f63a 6c4c fbbb 8762 f6bb
00000140: 2791 913c da66 1d3d b4e6 e83c 529e 053a
00000150: fc04 c63b 9599 613c 6cf9 8cbc 0260 0ebb
00000160: 25bb 993c 0953 5ebc a31b f2bc a2be ebb8
00000170: 4cc6 4bbb e7ef a6bc 379a ccbc 5e4d 2a3c
00000180: 74e4 18bd cc7f a13c 0286 e63c 5cb7 433d
00000190: 4a9d 92bc 139f 04bc ecd1 1e3c e66e 86bb
000001a0: e3c9 b83c 4ad3 cebb 8bf0 8cbb 8a68 123c
000001b0: 677c 013d cb92 01bd 04b0 9dbc 756f 6bbd
000001c0: ba56 163d 30b0 e1bb 879d 993c af84 c0bc
000001d0: 5ed5 403c f835 2d3c 8c43 68bc d28b aa3c
000001e0: 388b b9bb 7fc6 9e3b aa22 87ba 29d9 f23c
000001f0: 3bb8 943a d82e 94bc ea7b 38bc 7239 92bc
00000200: 1711 47bb 7e2c 7c3c d454 793c a79f 90bb
00000210: 3025 82bc f666 9dbc d87d c13b 376f a83c
00000220: 7e23 74bc 6c92 ccbc c9cb 2fbc 989d 84bb
00000230: 858c c53c 7bb5 d83c 779e e1bb 7e43 453d
00000240: 28f8 7e3c e845 52bd 5cd6 42bc ea48 6abc
00000250: 7e92 f73c e7fa f5bc 3194 e33b 2f69 bdbc
00000260: 4fcf 1cbc 4a8f bc3b 7965 49bc 184e 1d3c
00000270: c448 ccbb a3d2 d13c a700 d5bc f652 623c
00000280: fd67 223b c54e 593c ba14 cfbc aca7 a3bc
00000290: f2fd 9abb 465c 8a3b 7860 1dbc 4a7c 46bc
000002a0: 7b1d a63c dddd d9bc 0ff6 2a3a 87ae d9bc
000002b0: 942b dcbc e031 893c 14ef 15ba 821a 543c
000002c0: 53db d0bb 0f1e 523c 855a 103a 02d6 463c
000002d0: 04fe 743c fc28 363d 5290 c53c c613 0a3d
000002e0: 8987 113b 3820 853c 776d bdba 3d50 fbba
000002f0: 140d c43c af70 c8bc 04b9 24bd decd 82bc
00000300: eba9 9cbc 6081 aa39 d6e2 813b 03d2 8b3b
00000310: e7d9 3f3a 2473 3fbc 98f3 a7bc c476 acbc
00000320: 6775 813c 9a07 5139 f8a8 dfbc 6d06 12bb
00000330: 7b09 093d 14b4 e2bb 2002 19bc 40dc 1fbc
00000340: 661c ec3c 1124 19bd d8b8 953c 0bc6 b5bc
00000350: 9b1f 023c 7994 a73c 5e5e 0d3c d422 ba37
00000360: b776 16bc 12f4 d03b 71e2 26b9 cda8 d13b
00000370: 1d95 fa3a 74b9 5c3c d736 54bb f671 f8bb
00000380: c075 e9bc 0a82 d33a b55d 7ebb c18a 5a3c
00000390: 26a7 bb3c ba75 d63b 7c7b 9fbc c147 dd3b
000003a0: 175a c43c fa61 eb3c 030d 093d 78b7 95bb
000003b0: 6aa1 4f3c 58dd bf3b e0f7 29bc 2129 a13c
000003c0: 6429 783c 9af6 10bd 96af 00bc a28f 173c
000003d0: fb08 1a3d d8f9 a1bb 069d cfbb 966c 273c
000003e0: c98b 4739 4a96 c73c 905f 043c bb0f 5a3b
000003f0: a3b1 9b3a 784f c93c 716a ae3b 8bdd 3c3b
-0.021350583 0.012786543 0.023229185 0.041967064 -0.014206301 0.026613602 -0.0025929757 0.03183902
0.0528212 0.018182352 -0.014099727 -0.015534715 0.016967181 -0.025736993 -0.011625527 -0.026136262
0.050634786 -0.035552006 -0.017666792 0.015114579 0.020101098 0.0080989655 0.015145908 0.0057448917
0.006442856 -0.023378402 -0.022951875 0.044969913 -0.017000409 -0.0021752825 -0.027620614 0.0033527974
-0.0041017355 0.0189545 -0.011073008 -0.011774962 0.0028928376 0.019430997 -0.0069596004 -0.006967347
-0.023477051 -0.019601347 -0.0039132377 0.009336163 -0.0028786478 0.014637199 0.02137207 0.01928635
0.007828129 -0.04406926 -0.028742364 0.006029645 0.0024817614 -0.010307384 0.027000505 -0.0022584037
-0.015410458 0.02899504 0.0064222673 0.028232284 0.00032472127 -0.0076499674 -0.012615645 0.032773104
0.02002187 -0.021095116 -0.0050947084 0.0084129665 0.021651661 -0.030889546 -0.055547997 0.023702737
-0.014432791 -0.0003968188 0.005229235 -0.010137893 -0.05181509 0.0018777881 -0.0076690223 -0.0075190696
0.01776941 0.038428165 0.02843032 0.0005097139 0.0060430747 0.013769527 -0.017208777 -0.0021724706
0.018765995 -0.013569602 -0.029554194 -0.00011241181 -0.0031093536 -0.020378066 -0.02497588 0.010394422
-0.037327245 0.019714259 0.028140072 0.047782287 -0.017897267 -0.008094567 0.009693604 -0.0041025756
0.022557205 -0.0063118087 -0.004301136 0.008936057 0.03161278 -0.031634133 -0.01924897 -0.05747934
0.036703803 -0.0068874583 0.018751873 -0.023500768 0.011769621 0.010571949 -0.014176261 0.020818625
-0.005662348 0.00484544 -0.0010310013 0.029644566 0.0011346409 -0.018088743 -0.011260012 -0.017849658
-0.0030375177 0.015391467 0.0152179785 -0.0044135633 -0.015886873 -0.019214135 0.0059048943 0.020560844
-0.01490104 -0.024972163 -0.0107297385 -0.004047107 0.024114856 0.026453724 -0.0068853456 0.04816007
0.015562095 -0.0513362 -0.011891928 -0.014299611 0.03022122 -0.030026866 0.006945156 -0.023121445
-0.009570911 0.005754386 -0.012292259 0.0096011385 -0.0062342603 0.025613135 -0.026001288 0.013813725
0.002478122 0.013263409 -0.025278438 -0.019977413 -0.0047299797 0.0042224256 -0.0096055195 -0.012114594
0.02027773 -0.02659505 0.0006521651 -0.026572479 -0.026876248 0.016747415 -0.00057195243 0.012945773
-0.0063738017 0.012824549 0.00055066525 0.012135984 0.01495314 0.04447268 0.024116669 0.033710264
0.002220603 0.016250715 -0.0014452179 -0.0019173693 0.023932017 -0.024467794 -0.040215507 -0.015967306
-0.019123992 0.0003252132 0.0039638085 0.0042669787 0.0007318542 -0.0116851665 -0.020501897 -0.021052726
0.015803052 0.00019934625 -0.02730225 -0.0022281662 0.033456307 -0.0069184396 -0.009338886 -0.009757102
0.028822135 -0.03738791 0.018276617 -0.02218916 0.007942106 0.02045654 0.008628456 2.2189146e-05
-0.009183577 0.0063767517 -0.0001591535 0.0063982964 0.0019117926 0.01347195 -0.003238132 -0.0075819446
-0.02849853 0.0016136777 -0.0038813178 0.013338746 0.022906851 0.006544796 -0.019468062 0.0067529385
0.02396874 0.028733242 0.033459675 -0.0045689903 0.012672761 0.0058552437 -0.010374039 0.019672932
0.015146587 -0.035391428 -0.007854363 0.009250553 0.03760622 -0.004943114 -0.0063358573 0.01021876
0.00019030193 0.024363656 0.0080794245 0.0033273536 0.0011878501 0.024574026 0.0053227474 0.0028818573

layer1.bias f4 [32]
00000000: da39 b83b 6d1e 6bbc a066 c63c caaf d73b
00000010: 923b 333b dbd8 81bc 6407 823c d233 313c
00000020: 4bbd 75bc d6a0 d0bc 36c3 06bc edcd 9e38
00000030: 67f7 253b 6a37 c4bb 586b 903c bf15 bbbb
00000040: e964 8a3c bc13 b3bc 443e 843c 5eb8 b9bb
00000050: 9c67 9b3b ef04 b93c 1e05 67bc 6545 73bc
00000060: f643 3a3c 5c25 323c 6baf ae3c bc59 983c
00000070: a63d b1bc e2c5 0f3c e5a5 c83b fe48 043c
0.005622131 -0.014350516 0.024218857 0.006582235 0.002734874 -0.015850475 0.015872665 0.010815578
-0.014998744 -0.025467318 -0.008225253 7.572384e-05 0.0025324465 -0.005988051 0.01762931 -0.0057093794
0.01689382 -0.021859996 0.016142972 -0.0056677302 0.004742576 0.02258536 -0.014100341 -0.014848088
0.011368742 0.010873165 0.02132388 0.018597476 -0.021635842 0.008775206 0.006123292 0.008074043

layernorm1.weight f4 [32]
00000000: 54da 873f 5b1d 7e3f 39d8 813f fe69 7f3f
00000010: ec6e 7f3f 5d13 7f3f 5bb6 7b3f ef03 763f
00000020: c2dd 7d3f eda7 7e3f 1565 7f3f 1808 813f
00000030: e2b0 7c3f 7568 813f 7607 803f a58f 7f3f
00000040: 4d1d 813f 5611 823f b9a9 813f d276 7f3f
00000050: f7ac 803f db76 7f3f f677 7d3f fca7 793f
00000060: f381 7f3f a2e7 7f3f 92af 763f 508f 833f
00000070: f033 7e3f 360e 7f3f 4265 7f3f 70d5 813f
1.0613503 0.9926354 1.0144111 0.99771106 0.9977863 0.9963892 0.9832513 0.9609975
0.991665 0.99474984 0.99763614 1.0080595 0.987074 1.0110003 1.0002277 0.9982856
1.0087067 1.016154 1.012992 0.9979068 1.0052785 0.99790734 0.9901117 0.9752195
0.9980766 0.9996282 0.9636165 1.027811 0.99298 0.9963106 0.9976388 1.0143261

layernorm1.bias f4 [32]
00000000: 805f 953c c995 52bc e4f6 793b 873e c6bc
00000010: ea26 18bc 2fd8 d4ba 0845 44bc f951 973b
00000020: ce4e 58bc 24a3 13bc 6923 37bc 25d2 8b3a
00000030: 1efa abbb e0c6 4a3c 0f27 c5bb f2b7 22bc
00000040: 625d 5d3c a7da 333b 9b9a b13c d34e ef3b
00000050: 6922 d13c afeb 1fbc 94e0 d33c 134c 653b
00000060: a012 46bc 9393 8fb9 903b 17bd e773 ab3c
00000070: 7039 f13b 2441 0abc 7d38 4dbc 0c92 8b3b
0.018234015 -0.012853094 0.0038141543 -0.024199737 -0.009286622 -0.0016238744 -0.011979349 0.004617926
-0.013202382 -0.009011064 -0.011177876 0.0010667486 -0.005248322 0.012376517 -0.006016619 -0.009931551
0.013511034 0.002744356 0.021680167 0.0073030978 0.025529103 -0.009760781 0.025863923 0.003498797
-0.0120894015 -0.00027385037 -0.036922038 0.02092929 0.0073615834 -0.008438382 -0.012525675 0.0042593535

blocks.0.fcn_layer.weight f4 [32, 32]
00000000: 1c61 63bd 476a 323e fe19 29bd c09a 2a3d
00000010: 2cdb b6bd 103f 00be b738 0d3d af3c d8bd
00000020: 3997 353d 11ae f03d 0f27 6ebd dd7a 01be
00000030: 04b3 a33d c1db 223e 5db5 d63d 3abf 3dbd
00000040: 554f 273e fcc3 983d 27fa a43c eff1 bd3d
00000050: 9a97 2a3d 36ef d7bd e6b5 fd3d a04b 1bbe
00000060: 9d43 7d3d 1017 633d 8a31 263d 3c77 a83d
00000070: 2187 0ebe 77c0 d3bd 3e57 febd 1c17 29be
00000080: 9067 2abe a0c0 80bd 76a5 dc3d f4c4 0abd
00000090: d6ca 043e c70b f93d 5529 dcbd 300e 123b
000000a0: 0852 093e e44c ce3d ddad a0bc fa1b dc3d
000000b0: 223a 6c3d a1a8 d6ba 3c40 e8bd 730c db3c
000000c0: 0084 fb3d 4246 083c 3b3b 47be cb01 663d
000000d0: e0a1 9c3d d814 213e 7a33 df3d 4c39 03be
000000e0: 483d 6c3d a775 d1bd 8a1f 043e 2062 333d
000000f0: fe8b c8bd 6c53 2f3e 60b4 133e cee3 a53c
00000100: 23e5 96bd 94e1 06bd cd41 ba3c 79f7 df3d
00000110: 27b4 1ebd b932 293e a9c5 1dbe 781f 3c3d
00000120: b97f 20be 58e9 71bd 92df d33d af1a 933d
00000130: a177 79bd b0ce 1cbe fac1 f5bd 8569 713a
00000140: 33cf abbc bf7d c93c 14f0 41bd fb09 f2bd
00000150: d1f1 ef37 d8ae 9c3d 0e90 a33d 2b67 263e
00000160: af9e 22be fb92 91bd 1c6b 6b3c 28f2 8ebd
00000170: e355 0e3e 6221 8c3b 0b1a bebd faee 2b3e
00000180: 4396 b9bd 3469 d9bd e869 263e a98a a93d
00000190: 6f86 26bd 18ed a33d b996 89bd 8216 bf3d
000001a0: 8dfb 5d3d ee11 e23d 38bf c03d f7d3 263e
000001b0: 7240 f4bd 910f 113e 222e 26be 2861 7abc
000001c0: 3a95 05be f1e3 303e 327c 573c 2e73 4cbd
000001d0: 906c 7ebd 30d4 b5bd a4d0 a13d 9eac 20bc
000001e0: 73c5 30be 54cd c33d 1415 75bc de3c ee3d
000001f0: 3ed4 40be 8b0a 053c 9dd1 1e3e 2241 b8bd
00000200: 856b 5a3d b886 08be a0b3 4dbd a3a3 0abe
00000210: 1d41 863d 40b9 bbbd dabf 373e ac01 07be
00000220: 7ca9 7f3d bbb2 0bbc 0070 c23c 8e5e 24be
00000230: 2f46 dcbc 2c25 83bd fbf3 94bc 7281 b13d
00000240: 360d 36be b5bd 1bbd 5087 d13d ea53 533d
00000250: 210a 463d e13f 593d fd28 b03d 8409 ad3d
00000260: 84f2 c3bd 50ed 803c 8ce7 7b3d dbda 81bd
00000270: b8b4 19be 37e2 8f3d 98c2 c83d dba4 1b3e
00000280: d6cc 713d bae0 a03b 15a1 f23d 4390 233e
00000290: e627 f6bd a283 743d 4c18 a43d 3517 9d3d
000002a0: 7888 4e3d deb0 39be 9f5d aabd 6b71 cf3d
000002b0: 6ecc b4bd 9276 003e a640 aa3d a6a4 063e
000002c0: 3ab0 043e ffa8 9cbd a3c4 663e 6863 08be
000002d0: 3b4f 30bd 9cc2 78bd bcda 24be 48b3 0f3d
000002e0: 5e2e 91bd fa24 d3bb 3ad8 fbbd 9b97 383e
000002f0: baea 163d 0c38 0d3e a193 0ebe 9639 2fbd
00000300: dd5c 24be 356c 27be d0d8 8bbd 3acd af3d
00000310: f4a5 0c3d 77f8 5abc 88f7 993d aa38 d9bc
00000320: fa2e 063d e4ea bd3b f73f 333e 5d5a 03bd
00000330: 4bbb 193e fe6d 073d a6a6 f43c c741 36bd
00000340: f018 e9bd aa0e b7bc cbaf 923d 4a10 87bd
00000350: 5160 8a3c 8374 d73d 96db af3d aba4 0abd
00000360: b06d 07be 659e 1d3d 6491 8b39 6536 1f3e
00000370: 79dc 993d 36fc b5bd fc95 a53d 5dc8 043c
00000380: 1130 31be aad9 043d d297 c1bd 3db3 773d
00000390: bb18 21be 431e 963b 93ec 2c3d 0efa 84bd
000003a0: cf2c cbbd 2823 393d 9021 11bd a3c7 36bd
000003b0: 17dd 11bd 4b6c d4ba 777a 363d afcd 95bd
000003c0: 9ca7 ff3d a40d 2a3b f53d b33d 3079 24be
000003d0: 5174 1bbe 9ba1 32be bb66 95bd 83d1 ffbb
000003e0: f62b 1cbe f069 2ebe 44d6 3cbe a0e9 d43d
000003f0: d563 0bbd 1b48 c2bd 63b7 8ebd a1e8 2f3e
-0.055512533 0.17423354 -0.041284554 0.041651487 -0.089285225 -0.12524056 0.034477916 -0.105584495
0.04433367 0.117519505 -0.058142718 -0.12644525 0.07993129 0.15904142 0.10483811 -0.046324946
0.16338857 0.07459256 0.020138813 0.09274661 0.041648485 -0.10543673 0.1238821 -0.15165567
0.06183206 0.055441916 0.040574588 0.08225867 -0.13918735 -0.10339444 -0.12418984 -0.16512722
-0.16641068 -0.0628674 0.10773747 -0.033879235 0.12968001 0.121604495 -0.10750071 0.0022286288
0.13410199 0.100732595 -0.019614154 0.107475236 0.057672627 -0.001637716 -0.11340377 0.026739335
0.122810364 0.008317532 -0.19456188 0.056154054 0.07648063 0.15730608 0.1089849 -0.12814826
0.05767563 -0.102275185 0.12902656 0.04379475 -0.097923264 0.17121667 0.14424276 0.020250227
-0.07367923 -0.03292997 0.022736454 0.109358735 -0.038746025 0.16523255 -0.15407433 0.04592845
-0.15673722 -0.059060425 0.10345377 0.07182824 -0.060905103 -0.1531322 -0.11999889 0.0009209144
-0.020972824 0.024596093 -0.047348097 -0.1181831 2.8603625e-05 0.07650536 0.079864606 0.16250293
-0.15880845 -0.071081124 0.014368799 -0.069797814 0.1389995 0.0042764405 -0.09282311 0.16790381
-0.09061863 -0.10615769 0.16251338 0.082784005 -0.04065555 0.080042064 -0.06718201 0.09330465
0.054194976 0.11038576 0.09411472 0.16291796 -0.119263545 0.14166094 -0.16228536 -0.015281953
-0.13045207 0.17274453 0.013152169 -0.04991453 -0.062115252 -0.08878362 0.07901123 -0.00980678
-0.17262821 0.095606476 -0.014958639 0.11632703 -0.18830964 0.008120189 0.15509649 -0.08996798
0.053325195 -0.13332641 -0.050220132 -0.13538985 0.06555388 -0.09166193 0.1794428 -0.13184232
0.062417492 -0.008526499 0.023735046 -0.16051695 -0.026888935 -0.06403574 -0.018182745 0.08667268
-0.17778477 -0.038022716 0.10230887 0.0515937 0.048349503 0.053039435 0.08601568 0.084490806
-0.095677406 0.01573816 0.061500117 -0.063405715 -0.15010345 0.07025569 0.09802741 0.15199606
0.059033237 0.004909602 0.1184713 0.15973 -0.12019329 0.059695847 0.08012447 0.07670442
0.050423115 -0.18133876 -0.08318638 0.10129055 -0.08828054 0.12545231 0.08313112 0.13148746
0.1295785 -0.07649421 0.22535948 -0.1331917 -0.04304431 -0.06073247 -0.16099066 0.035083085
-0.07088922 -0.006443617 -0.12297101 0.18026583 0.036844946 0.13790911 -0.13923503 -0.042779528
-0.1605105 -0.16349871 -0.06828463 0.08584066 0.034337953 -0.013364903 0.07517916 -0.026516277
0.032759644 0.0057958234 0.1750487 -0.0320686 0.15012853 0.03306388 0.02986462 -0.044496324
-0.113817096 -0.02234586 0.07162436 -0.06594904 0.01689163 0.1052027 0.085868046 -0.033848446
-0.13225436 0.038481135 0.0002662047 0.15548094 0.07512755 -0.08885996 0.08085248 0.008104411
-0.17303492 0.032434143 -0.094527856 0.06047367 -0.1573209 0.004581244 0.042217802 -0.06493007
-0.09920656 0.045199543 -0.0354324 -0.044623982 -0.03561124 -0.001620659 0.044550385 -0.07314622
0.12483141 0.0025948072 0.08752052 -0.16061854 -0.1518109 -0.1744446 -0.07294985 -0.007806958
-0.15251145 -0.170326 -0.18441111 0.10396123 -0.034030754 -0.09486409 -0.06968572 0.17178585

blocks.0.fcn_layer.bias f4 [32]
00000000: 98ec 923d b027 ff3d a931 453d 4bd3 40bd
00000010: d00d b0bd 2238 37bd debb 0fbe 96c4 0f3e
00000020: 069a a63d 85df 88bd e54b 463c 1e03 163e
00000030: 042b 66bd d8e5 233e 000b 40bd ee29 1a3e
00000040: 320a 8c3d 5ea4 da3d dda9 ab3d ffbe 713d
00000050: 303c ac3d d341 f1bd 75c1 c23d 048a 06be
00000060: 555f a23d 55d8 0e3e 9921 abbd 46fc 743c
00000070: 9f11 783d 68d5 b6bd 65e1 60bd 19fb 01bd
0.07174033 0.12458742 0.048143063 -0.047076505 -0.085963845 -0.044731267 -0.1403651 0.14039835
0.081348464 -0.06683258 0.012103056 0.14649627 -0.056193367 0.16005647 -0.04688549 0.15055057
0.06837882 0.10675882 0.08382008 0.05902004 0.08409917 -0.11780133 0.09509555 -0.13138586
0.079283394 0.13949712 -0.083560176 0.014952725 0.06056368 -0.08927423 -0.054902453 -0.031733606

blocks.0.layer_norm.weight f4 [32]
00000000: 3b91 9d3f 7f48 833f ca4a 843f 6e1c 883f
00000010: 8fac 803f 1463 b43f c00a 803f b53f 803f
00000020: f5dc 7f3f 7dcd 9d3f db36 a63f 2ec7 8c3f
00000030: a82d 893f fd47 a83f 0046 793f 531c 8c3f
00000040: 7eb2 a13f 4a6e 843f 99c3 803f c6d0 9a3f
00000050: a475 873f f9a6 733f aa45 813f b69c a43f
00000060: 0f4b 813f d7ad 7e3f f07f a63f 5459 aa3f
00000070: 9a3d 7e3f 5619 833f 5549 7f3f da4a 813f
1.2309946 1.0256499 1.0335324 1.0633676 1.0052661 1.4092736 1.0003281 1.0019442
0.9994653 1.2328335 1.298549 1.0998285 1.0717058 1.3146969 0.97372437 1.0946144
1.2632596 1.0346158 1.0059692 1.2094963 1.0582776 0.95176655 1.0099385 1.2860324
1.0101031 0.9948401 1.3007793 1.3308511 0.99312747 1.0242107 0.9972127 1.0100968

blocks.0.layer_norm.bias f4 [32]
00000000: d810 823e 89d5 4b3c 2c40 a93c adf6 283d
00000010: 42ed bf3a 0f9f a63e 4301 623b 246a 09ba
00000020: 5676 23ba ad1c 853e 7a02 903e 6eb3 8d3d
00000030: 0b5a d33c ba31 933e d8bd 93bc 309f 883d
00000040: 2971 873e db06 793c ea44 443c 3e78 753e
00000050: 8a05 e13c bab0 6fbd 8294 393c e694 8c3e
00000060: be59 b63c 843a 14bc 068e 8f3e 6a61 943e
00000070: 4705 c1bb f203 853c 4ce2 c8bb 5169 943c
0.25403476 0.0124410475 0.020660482 0.041250873 0.0014642852 0.32543227 0.0034485615 -0.00052419514
-0.000623559 0.2599844 0.2812689 0.06918989 0.025799772 0.28748876 -0.01803486 0.066709876
0.26453522 0.015199388 0.011979321 0.2397165 0.027468462 -0.05851815 0.011326911 0.2745735
0.02225959 -0.009047154 0.28038043 0.2898057 -0.0058905217 0.016237233 -0.0061304923 0.018116625

last_layer.weight f4 [1, 32]
00000000: 7eaa 9dbe b4b2 e83d 3cc1 fb3d 1dc7 293e
00000010: c2c3 b93d f94f b6be cdeb a23d 1c6e e3bc
00000020: f72b 313e 90f5 90be 787c a0be 45ee 7d3d
00000030: e4a5 b63d e5c3 9fbe 8c04 b33a 0d84 843e
00000040: c025 a1be 1c5f fe3d 4603 303e 9c32 b4be
00000050: 02fa e33d 625a dbbd dbd2 2c3e 4c94 a1be
00000060: aa48 103d b003 223d 2241 a2be 1c13 abbe
00000070: 7ab4 a3bd 22dc 043e b0c6 8c3d 0a36 863d
-0.30794138 0.1136221 0.12292716 0.16579862 0.09070541 -0.3560789 0.07955132 -0.027762465
0.17301928 -0.2831235 -0.31344962 0.06199481 0.0891836 -0.31204143 0.0013657971 0.25881997
-0.31474113 0.124204844 0.17188749 -0.35194862 0.111316696 -0.107105985 0.1687731 -0.31558454
0.035225548 0.039554298 -0.31690317 -0.33413017 -0.079934075 0.12974599 0.06873834 0.06553276
